trained_models/experiment_0/model_2020_May_25_15_11.pth (torch_old, 8445 bytes, 10 tensors)

weight f4 [2, 1, 1, 15]
0.17959052 -0.06784623 -0.19774976 0.14564176 0.22824025 -0.23239799 -0.14912832 0.090066135
0.08548911 -0.24269158 0.09740463 0.2646055 -0.4075679 -0.012383373 -0.17512839 0.22277674
0.17299898 0.14553434 -0.058139745 -0.043759022 0.14063409 0.23552832 -0.025930427 0.07236575
0.13574219 0.2817347 -0.019038286 0.115386 -0.27137047 -0.29280466
00000000: 94e6 373e f7f2 8abd ea7e 4abe 1d23 153e
00000010: d0b7 693e bdf9 6dbe 18b5 18be 9874 b83d
00000020: ea14 af3d 2484 78be 147c c73d 5f7a 873e
00000030: bdac d0be a2e3 4abc db54 33be 961f 643e
00000040: a526 313e f406 153e f123 6ebd a93c 33bd
00000050: 6202 103e 562e 713e 0c6c d4bc 7f34 943d
00000060: 0000 0b3e 883f 903e 2ef6 9bbc 7f4f ec3d
00000070: 12f1 8abe 7eea 95be

bias f4 [2]
0.17630622 0.07995919
00000000: 9e89 343e a5c1 a33d

weight f4 [2, 2, 32, 8]
0.0029370408 0.06506792 -0.007951355 0.05490877 0.037565254 -0.040823355 0.0061523756 -0.021547813
-0.051149346 -0.060220655 -0.06862276 0.08895823 0.036712203 0.018180082 -0.011692377 0.012345019
0.017078359 0.041262224 -0.018695084 -0.021558609 -0.008978841 0.020454349 -0.07876136 -0.11210118
-0.0311781 0.09446071 0.05931715 -0.029837357 0.024925033 -0.022863822 -0.038097974 -0.008794053
0.016669352 0.08081883 0.010233135 0.1339747 0.06979963 0.076893464 0.07714154 -0.025462212
-0.07194083 -0.056521147 -0.08629818 0.046675656 0.016998025 -0.07781536 -0.058707267 -0.13639581
0.05539922 -0.0045560687 0.032729506 0.019714503 -0.018944649 0.020254493 -0.052917525 -0.0776803
0.051075418 0.0059705777 0.058206078 0.024893804 -0.013726675 0.032016434 0.02027421 0.05024457
0.03277275 0.03030209 -0.068961024 -0.03832268 0.049232166 -0.0053962334 0.0018421293 -0.040438794
0.037524894 0.092032306 -0.020195745 -0.0295709 0.014876014 0.031070206 -0.008373523 0.03015546
-0.09110625 -0.022481265 -0.026495082 0.034084756 0.00449171 -0.017611966 -0.01469784 -0.17013377
-0.008693955 -0.06547628 -0.016970549 0.021313393 0.034361344 -0.012806008 0.10560753 -0.0005766488
0.06989858 -0.031682152 -0.07833333 -0.0020533423 -0.038173325 0.049374867 0.10102632 -0.03999579
-0.015301425 0.06297297 0.054009743 -0.015885394 0.026626306 0.03683693 -0.07177214 -0.066973016
0.04871586 -0.019883858 0.03344399 0.033160515 0.06313861 0.14111768 0.03274657 0.022909962
0.072881654 0.120465964 0.07788377 0.11208851 0.052193776 0.055128083 0.03207023 -0.01727165
-0.0056836647 0.010304385 -0.025532113 -0.0009077876 0.06746889 0.022608407 0.01591852 -0.07709711
0.041194268 0.03397601 0.031500883 0.035041958 0.039605595 0.05391294 0.06812418 0.06857115
-0.06029246 0.0059849164 0.012708699 -0.05593769 0.0043041697 0.028656347 -0.06340521 -0.03974635
0.056731407 0.06786342 0.07528596 0.031493366 -0.00928941 0.06613706 0.031282052 0.056727108
0.029759008 0.06707136 0.06136415 0.047512382 0.017938979 0.079764426 0.008023524 0.07571905
-0.06262325 -0.036562994 0.0064857784 0.0061933557 -0.047142256 -0.04562191 -0.055393934 -0.01621591
0.008640567 -0.016201114 -0.03081102 0.014366979 0.054046176 -0.0225657 -0.05930177 -0.11795605
-0.11491466 0.02148797 0.043225165 -0.04668229 -0.08840705 -0.107476935 -0.057313513 -0.08617922
0.042021684 0.12171559 0.15668377 0.09047937 0.11652739 0.036722433 0.099328026 -0.024461212
0.037860442 0.07213462 -0.015831735 -0.06367932 -0.098662026 -0.11439049 -0.10507386 -0.19249064
-0.048939977 0.01588068 0.027146788 -0.0052278414 -0.034865577 -0.06793333 -0.052745037 0.01702998
0.003318651 -0.06998641 -0.08464071 -0.037898343 -0.015767885 -0.15100002 -0.14820541 -0.054333474
0.045326453 0.014423498 -0.0031570597 -0.054357927 -0.013663519 -0.008737018 -0.12724337 -0.039742276
0.03197731 -0.005694508 -0.016303 -0.121256456 0.013237495 -0.13210611 -0.109050944 -0.16625552
0.04870124 0.08947818 0.024081692 -0.057677794 0.043193508 -0.029555371 0.017494725 0.013778572
0.048386764 -0.026464397 0.056884248 0.0932894 0.14656594 0.13022108 0.122329056 0.04829411
00000000: 5e7b 403b 5442 853d 6646 02bc 05e8 603d
00000010: 06de 193d 6436 27bd de99 c93b 0a85 b0bc
00000020: fa81 51bd efa9 76bd 178a 8cbd bc2f b63d
00000030: 895f 163d 65ee 943c 6291 3fbc c342 4a3c
00000040: eae7 8b3c 9402 293d 6f26 99bc ae9b b0bc
00000050: fd1b 13bc e18f a73c a34d a1bd 4e95 e5bd
00000060: 3769 ffbc 9e74 c13d 8af6 723d 796d f4bc
00000070: 952f cc3c e94c bbbc 9f0c 1cbd ef14 10bc
00000080: 2a8e 883c 5884 a53d e1a8 273c aa30 093e
00000090: 1cf3 8e3d 527a 9d3d 62fc 9d3d 2196 d0bc
000000a0: b755 93bd b882 67bd 1abd b0bd f92e 3f3d
000000b0: 713f 8b3c a95d 9fbd 0877 70bd 58ab 0bbe
000000c0: 4bea 623d 134b 95bb 600f 063d 4f80 a13c
000000d0: cf31 9bbc c0ec a53c 0cc0 58bd d916 9fbd
000000e0: 7534 513d d6a4 c33b 7f69 6e3d 17ee cb3c
000000f0: d9e5 60bc aa23 033d 1a16 a63c 40cd 4d3d
00000100: b83c 063d 173c f83c 703b 8dbd 3ef8 1cbd
00000110: aba7 493d e3d2 b0bb 9a73 f13a 26a3 25bd
00000120: b4b3 193d 6f7b bc3d 8c71 a5bc ac3e f2bc
00000130: 86ba 733c f286 fe3c 1a31 09bc 9508 f73c
00000140: ea95 babd a12a b8bc 370c d9bc 759c 0b3d
00000150: 322f 933b f846 90bc 36cf 70bc 8c37 2ebe
00000160: 1771 0ebc 6e18 86bd d205 8bbc 6d99 ae3c
00000170: 7bbe 0c3d 4ad0 51bc c348 d83d 3f2a 17ba
00000180: fd26 8f3d 25c5 01bd 3a6d a0bd 5e91 06bb
00000190: a25b 1cbd 4d3d 4a3d e3e6 ce3d a0d2 23bd
000001a0: d4b2 7abc f9f7 803d 5239 5d3d 1622 82bc
000001b0: 691f da3c 52e2 163d 46fd 92bd 2629 89bd
000001c0: 488a 473d 79e3 a2bc 91fc 083d 52d3 073d
000001d0: d14e 813d 2781 103e 4421 063d acad bb3c
000001e0: fa42 953d dcb6 f63d 8781 9f3d a98e e53d
000001f0: 24c9 553d fccd 613d 135c 033d 467d 8dbc
00000200: 093e babb b9d3 283c b928 d1bc 98f8 6dba
00000210: 212d 8a3d 4435 b93c 8e67 823c 17e5 9dbd
00000220: 52bb 283d 6e2a 0b3d 1207 013d 2888 0f3d
00000230: 7a39 223d d1d3 5c3d b184 8b3d 086f 8c3d
00000240: 3af5 76bd 1e1d c43b 2638 503c eb1e 65bd
00000250: fe09 8d3b b7c0 ea3c 97da 81bd 12cd 22bd
00000260: 315f 683d fafb 8a3d 872f 9a3d 30ff 003d
00000270: 9c32 18bc de72 873d 9c21 003d af5a 683d
00000280: 2ac9 f33c b65c 893d fa58 7b3d 589c 423d
00000290: c4f4 923c 885b a33d 1975 033c 9712 9b3d
000002a0: 9e40 80bd 14c3 15bd a786 d43b a2f1 ca3b
000002b0: 3d18 41bd 0ade 3abd c0e4 62bd 3ad7 84bc
000002c0: 2a91 0d3c 33b8 84bc 6467 fcbc 7a63 6b3c
000002d0: 865f 5d3d b4db b8bc 6ae6 72bd f192 f1bd
000002e0: 6158 ebbd 8a07 b03c df0c 313d ee35 3fbd
000002f0: c10e b5bd de1c dcbd 93c1 6abd bb7e b0bd
00000300: ee1e 2c3d 0646 f93d b671 203e 3f4d b93d
00000310: eaa5 ee3d 436a 163d 7e6c cb3d e162 c8bc
00000320: 8d13 1b3d 51bb 933d 8eb1 81bc 4e6a 82bd
00000330: 510f cabd 9045 eabd f730 d7bd 441c 45be
00000340: 4975 48bd 3318 823c f162 de3c 504e abbb
00000350: 35cf 0ebd a120 8bbd 2e0b 58bd 7582 8b3c
00000360: ba7d 593b 0955 8fbd 1c58 adbd 4b3b 1bbd
00000370: a72b 81bc c09f 1abe 29c3 17be c78c 5ebd
00000380: 3ba8 393d 8950 6c3c ace6 4ebb 6ba6 5ebd
00000390: f4dc 5fbc b625 0fbc 164c 02be ccc8 22bd
000003a0: a4fa 023d ff98 babb de8d 85bc 4e55 f8bd
000003b0: 14e2 583c d346 07be 1a56 dfbd e33e 2abe
000003c0: f47a 473d 5640 b73d f846 c53c 8d3f 6cbd
000003d0: adeb 303d 1b1e f2bc 1951 8f3c 85bf 613c
000003e0: 3331 463d ddcb d8bc 75ff 683d 830e bf3d
000003f0: 6215 163e ad58 053e a887 fa3d 0bd0 453d

bias f4 [2]
0.04266538 0.17581256
00000000: e5c1 2e3d 3508 343e

weight f4 [2]
1.0264568 1.0475312
00000000: f062 833f 8115 863f

bias f4 [2]
0.047772348 0.11354444
00000000: f0ac 433d fd89 e83d

running_mean f4 [2]
-0.26884305 -0.48348084
00000000: cca5 89be cd8a f7be

running_var f4 [2]
2.650592 4.540909
00000000: 4da3 2940 204f 9140

weight f4 [2, 2, 1, 8]
-0.06652433 0.010532581 -0.10210715 0.37411538 0.032782815 0.32509896 0.0046546655 -0.2808972
-0.17490546 -0.040717572 0.3922787 0.25676295 -0.046242226 0.31082 0.06016118 0.284811
0.39311534 0.8637705 0.3773677 0.3438444 0.020612393 -0.37885007 -0.27235457 -0.10559687
-0.009963697 -0.05465714 -0.40425214 -0.5158741 -0.21912815 -0.075266 0.36084795 0.04782421
00000000: e83d 88bd d990 2c3c 8e1d d1bd 0d8c bf3e
00000010: 4647 063d 5f73 a63e 2a86 983b c2d1 8fbe
00000020: 6b1a 33be 78c7 26bd c1d8 c83e 6f76 833e
00000030: 7d68 3dbd cd23 9f3e 926b 763d bfd2 913e
00000040: 6a46 c93e 1020 5d3f 5736 c13e 600c b03e
00000050: 52db a83c a3f8 c1be 0f72 8bbe 2c43 d8bd
00000060: c63e 23bc 2ae0 5fbd 23fa cebe 5310 04bf
00000070: 2163 60be 1025 9abd 10c1 b83e 52e3 433d

bias f4 [2]
0.3012307 0.09993573
00000000: e93a 9a3e 1bab cc3d
