trained_models/experiment_0/model_2020_May_25_14_52.pth (torch_old, 8445 bytes, 10 tensors)

weight f4 [2, 1, 1, 15]
00000000: 67ea 9bbe 6b78 6e3e d329 63be b6e8 583e
00000010: a575 40be e352 8fbe 7a23 263d df38 16be
00000020: 748b f23d 679c af3d b160 c93c ba0e 23be
00000030: e420 0c3e e8a2 31bd 1c9e 1b3f 386c 323e
00000040: ff31 633e cbbc 3a3e 880a 54be efdb a6bd
00000050: 5fe5 a73d 2627 ddbd 0693 d3bd 63df 4abc
00000060: 8146 ca3d 0109 8c3d d36d d83d 409d 013e
00000070: 37de b8be ff55 c83d
-0.30452272 0.23288123 -0.22183923 0.21182522 -0.18794878 -0.27992925 0.040561177 -0.14670132
0.11843005 0.08574753 0.024582239 -0.15923586 0.13684422 -0.04336825 0.6078813 0.17424095
0.22187041 0.18236081 -0.20707142 -0.08147418 0.08198046 -0.107984826 -0.10330777 -0.012382361
0.09876729 0.06837655 0.10567822 0.12657642 -0.36107036 0.097820275

bias f4 [2]
00000000: 2394 c8bd bc40 d03e
-0.0979388 0.40674388

weight f4 [2, 2, 32, 8]
00000000: 364e 85bd 4a98 593c 975f b8bb bc0b 10bd
00000010: 7a4f 53bd 0cc8 843c 827f 553c b1c8 4d3d
00000020: f32e acbc 2675 c2bc b7a3 01bc fe7a cfbc
00000030: 5567 133d 4466 91bd 672a 87bd adf5 e5bd
00000040: 9882 60bd c607 d2bd 2785 8bbd fa1b 793c
00000050: d9fa 5e3d 83b2 383d 25c8 c73d 734c 513d
00000060: cf78 efbc d853 bebc 2dd6 ab3d b4e7 933c
00000070: 763c 8a3d 1399 8d3d 5f7b 5f3d ba2f 89bd
00000080: af60 123d 34bc f33d 1b37 af3c 0dc2 73bd
00000090: c5ec ed3d 894e f73d 9c56 503d 6fa2 b9bd
000000a0: 42e3 e03c 9487 40bd 4443 8bbc 976b 86bc
000000b0: ed39 eb3b 14b5 c83d 6245 a03c 3556 62bd
000000c0: 879a 92bd a52f 84bd 7428 85bd 9788 21bd
000000d0: 01da 81bd a1b2 3fbb 5c9f 643d 66fc 893d
000000e0: 8fcb 14bd 8a8c 863d 825e e0bc 4a38 033b
000000f0: dc91 1c3d 436f 33bd 6a59 4fbd 008f 2bbd
00000100: d1d3 ebbc 0440 9ebd 5f41 afba d514 4abd
00000110: 2d19 973d 663e 433d fdf4 deba 3065 84bd
00000120: c9d2 8abc f69e 10bb 3f53 d43b a718 d93c
00000130: 7417 c83d c6af fe3c bd35 343d a871 fbba
00000140: 78b6 183e ac90 973d 851b 103e 6c33 f43d
00000150: 2e41 9e3c 0ca9 00be c3e6 64be c291 50be
00000160: d283 46bc a2c9 56bd da9c f8bc 55db 353d
00000170: 767e 48bd 5b1f cdbc 905e 4e3d e85e 9aba
00000180: 4d28 9f3d 41a5 1d3d 96f4 fd3d 7bbe 87bd
00000190: 4e3e 99bd 57d7 06bd e093 3bbd 31c1 28bd
000001a0: 7a53 0bbd 6a23 65bd 1636 9dbd 36da 89bd
000001b0: a0e8 88bd bbcd 233d 8195 003d 5764 283d
000001c0: e0e1 b5bc ba41 5b3d 3831 b9bc d885 39bd
000001d0: c902 b33d ca19 843d cf8c 373d 999f 963d
000001e0: 6cb6 903d 0497 1cba 2444 123d d1cb 08bd
000001f0: d4b9 8fbd ccbd 01bd 56b6 f53c f48c 7f3d
00000200: ad29 a1bd f423 8abd 0334 40bd c625 d83c
00000210: 3c06 cbbc f083 ab3d 0394 10bd 90fb bc3d
00000220: 728d ad3d b61b ac3d 585f dabc b69e 7f3c
00000230: 933d ac3c 4407 743d 9b5f b63c 06aa fc3c
00000240: 69a1 473d b0ba 4cbd 891d 033d b811 8ebd
00000250: 7948 913c be90 bbbd 3ccc d3bc 56cc cf3c
00000260: 5b91 c33d 8bdd c83c 3ec7 c8bb 38b8 8e3d
00000270: ef72 5a3d e581 0d3c e1f0 13bd 0fc2 3d3c
00000280: 2c46 7abd 0aed d23c 9e2d 9a3d 19d3 463d
00000290: 828e b5bc a154 3e3c a84a 83bd 9813 07be
000002a0: 517e 333c 0cb2 a2bc 74ab 543d a2fe 3abd
000002b0: 850a 8cbc 25f8 80bc dffa 593d d66d 1b3d
000002c0: 6655 c73c 2a01 b7bd 45c5 183c cac2 ae3c
000002d0: 3613 9a3c 1856 d4bb 9f97 25bc 1e0b a4bd
000002e0: f8f7 003e 7ecc ad3d 20d9 353d aca9 dfbc
000002f0: 6a05 3c3d d017 5abc bfbd 563d 5a37 f6bc
00000300: c90b 1abe d76c d6bd 67fd ffbd a1ed adbd
00000310: 7e35 84bc e058 743d a2c7 fa3b 8f8c 573d
00000320: a481 dcbc 51ff b7bc e826 86bc 58fc 24bc
00000330: e29a 5abd 6517 64bd 5c1f 313c eb9c 223d
00000340: 1747 75bd fb04 c83a 4a77 e2ba 6a9e 4d3d
00000350: 968c 863c d11c f03c 9d7e 533d 9c11 42bd
00000360: 02cd dbbd 9d9f a33c 0379 dcbc c117 69bd
00000370: a12f 203d 036d 913b 27ab 4d3d 7157 bdbc
00000380: 16f2 8fbd b242 eebd 4dcc c0bd a20d c03a
00000390: e367 49bd 89e6 c83d 57ef b4bc 205f 6f3c
000003a0: ae30 cb3d 4fa4 40bd ce82 e13d fa1d 57bd
000003b0: 281a 9b3d 552e 77bd d42f e23a 52c6 8e3d
000003c0: 6713 d83d 5894 4fbc 3aa0 5eba 632d 823d
000003d0: fc0f fdbc 5c9f ff3c 760d 54bd 9c05 e4bd
000003e0: fd46 393e 98f6 113d b4b2 033d fed9 1a3e
000003f0: 8885 813d fc74 543b 2588 2dbd 4edf 9c3d
-0.06509058 0.013280937 -0.0056266296 -0.03516744 -0.051589467 0.016208671 0.0130308885 0.050240222
-0.02101848 -0.023737501 -0.007912568 -0.025327202 0.035987217 -0.07099584 -0.065998845 -0.112284996
-0.054812044 -0.10255389 -0.06812506 0.015204424 0.054438446 0.045092117 0.097549714 0.0510983
-0.02923241 -0.02323334 0.0839046 0.01805482 0.06749813 0.06913962 0.054561015 -0.06698556
0.035736736 0.11901131 0.021388581 -0.059511233 0.11617426 0.12075526 0.050863847 -0.09064185
0.027452115 -0.047004297 -0.016999848 -0.016408725 0.007178536 0.09800163 0.019564334 -0.055257995
-0.0715838 -0.064544 -0.065018564 -0.039436903 -0.06340409 -0.0029250758 0.05581604 0.06737594
-0.03632694 0.065697744 -0.027388815 0.0020022565 0.03822504 -0.04380728 -0.05062238 -0.041884422
-0.028787525 -0.07727054 -0.0013370923 -0.049336273 0.07377849 0.04766693 -0.0017010268 -0.064646125
-0.016946213 -0.0022067404 0.0064796503 0.026501013 0.09770098 0.031089675 0.04399656 -0.0019183652
0.14913356 0.07400641 0.14072998 0.119238704 0.01931819 -0.12564486 -0.22353654 -0.20368102
-0.012116389 -0.052438386 -0.03034823 0.044398624 -0.048948728 -0.025039366 0.05038315 -0.0011777552
0.07771359 0.038487677 0.12400167 -0.06628128 -0.07482587 -0.032920208 -0.04579532 -0.041199867
-0.034015156 -0.055941977 -0.07676332 -0.067310736 -0.06684995 0.03999112 0.031392578 0.041111317
-0.022202432 0.05352948 -0.022606477 -0.04529366 0.087407656 0.064502314 0.04481202 0.073546596
0.07066044 -0.0005973431 0.035709515 -0.0333975 -0.07017866 -0.031675145 0.029994171 0.062390283
-0.07869277 -0.06745139 -0.046924602 0.0263852 -0.024783246 0.083747745 -0.035297405 0.09227669
0.08474244 0.08403723 -0.026656792 0.0156018045 0.021025455 0.05957724 0.022262385 0.030842792
0.048737917 -0.049982727 0.03201059 -0.06936973 0.017734753 -0.09158467 -0.025854222 0.02536599
0.09549209 0.024519702 -0.006127267 0.06968731 0.053332265 0.008636926 -0.036118392 0.011581912
-0.061102077 0.025747795 0.07528232 0.048541162 -0.02216268 0.011616857 -0.06410724 -0.13191068
0.010955409 -0.01986029 0.051921323 -0.045652993 -0.01709486 -0.015743325 0.053217765 0.037946545
0.024332713 -0.08935769 0.0093243765 0.021333117 0.018807989 -0.0064799897 -0.01010695 -0.08009933
0.12594593 0.084862694 0.04439652 -0.027302586 0.0459036 -0.013311341 0.05242705 -0.03005569
-0.15043558 -0.10469978 -0.124995045 -0.0849259 -0.016138788 0.05965507 0.0076531926 0.05262428
-0.026917286 -0.022460612 -0.016375974 -0.010069929 -0.053370364 -0.055686373 0.010810699 0.03970043
-0.05988225 0.0015260273 -0.0017277983 0.050199904 0.016424458 0.029310616 0.05163442 -0.047380075
-0.107324615 0.01997357 -0.026913172 -0.05690742 0.039107922 0.004438044 0.05021205 -0.023112984
-0.07028596 -0.11633815 -0.09413967 0.00146525 -0.04917134 0.09809596 -0.022086782 0.014610082
0.09921394 -0.047031697 0.11011277 -0.052518822 0.07573348 -0.06034692 0.0017256686 0.0697142
0.10550576 -0.012669645 -0.00084925035 0.06356313 -0.030891411 0.031203918 -0.05177065 -0.111338824
0.18093486 0.03563556 0.032152846 0.1512222 0.06324297 0.003241836 -0.042366166 0.076597795

bias f4 [2]
00000000: a07e babe 904c 3f3e
-0.36424732 0.1868155

weight f4 [2]
00000000: 5454 833f 2619 853f
1.026011 1.03983

bias f4 [2]
00000000: 8584 9fbe cd0a 513e
-0.31155792 0.20414276

running_mean f4 [2]
00000000: c786 8ebe a390 d3bd
-0.27837202 -0.10330322

running_var f4 [2]
00000000: 5bee 3342 0ceb b841
44.98277 23.114769

weight f4 [2, 2, 1, 8]
00000000: c6ad 0b3f f009 853e 6f8a b03e dce7 78be
00000010: 1771 aebe 45fb c8be 5fd9 d8be 282e 96be
00000020: 3388 3abf 9a49 0abf f6be 31bd faf6 06bd
00000030: e36b 2ebd 259f d63e be0b 0e3e c3e7 673e
00000040: 6e2a c7be 16c5 d4be 63e5 1b3f cd03 2a3f
00000050: aa03 ff3b 1423 96bd e03a 793e f01f 2fbe
00000060: 83e2 e93e 3900 2f3f 45e3 ac3e 84c3 a23e
00000070: d9ca 2bbf e1ed 75bf f4a7 5ebe 605b 2fbe
0.5456203 0.25984144 0.34480616 -0.24307197 -0.34070656 -0.39254203 -0.4235334 -0.2933209
-0.72864074 -0.5401856 -0.043395005 -0.03295038 -0.042583358 0.41918293 0.13871667 0.22647004
-0.3889956 -0.41556615 0.6089689 0.6641205 0.007782419 -0.07330909 0.24338865 -0.17102027
0.45680627 0.68359715 0.33767143 0.31789792 -0.67106396 -0.960661 -0.21743757 -0.171247

bias f4 [2]
00000000: c0cd 85bd 52f5 3d3d
-0.06533384 0.046376534
